CW2Q2/model_state_dict.pt (torch, 45471 bytes, 6 tensors)

layer_1.weight f4 [100, 2]
-0.40080455 0.62263376 -0.4969931 0.2697491 0.0939455 0.084634244 0.089600265 0.17605233
-0.55758804 0.13156241 0.58910686 -0.31025955 0.42859954 -0.01908189 0.03390163 -0.43034613
-0.6388999 -0.17956966 0.55738276 -0.27570176 -0.40236574 -0.6287339 -0.5045757 -0.31342033
0.099760234 -0.16683602 -0.3128231 -0.43403068 0.2956378 0.09211326 -0.51628816 0.55097455
0.3634476 0.10595381 0.6158504 0.63587373 0.3708325 -0.092063904 -0.41573963 0.34257907
0.39237446 -0.30742112 0.18739659 -0.0858528 0.24034613 0.119995475 -0.18993932 -0.41565138
0.58151096 0.2677076 -0.05986482 -0.4044383 0.07177919 -0.5447301 -0.6476817 0.44601887
-0.22038966 0.66531855 0.16946179 -0.6887611 0.10784465 -0.18647546 0.18571943 0.40327567
-0.6400727 -0.5328991 -0.15669513 0.19177616 0.35506076 0.085594 -0.3916338 0.585416
-0.24669251 -0.5638828 0.20062387 -0.14812762 0.60678273 -0.6578338 -0.3960953 0.22481406
0.447254 0.14796597 0.033620954 0.1726942 -0.51196975 0.053492844 -0.03840244 0.49877554
0.115095556 0.18381268 0.43788463 0.11956978 0.5333541 0.011200547 0.39118725 -0.3835062
-0.07643527 -0.20746136 0.29233485 -0.6314042 0.051313102 0.5054839 -0.12409067 0.6088334
-0.14380962 -0.24286076 -0.50273824 0.6632102 -0.054269195 -0.64500743 0.25360686 -0.02783519
-0.13006228 0.28662068 0.1488083 -0.608023 -0.53660804 -0.22783473 0.45251483 0.36380225
-0.6595712 0.5770299 -0.54447144 -0.5517491 0.59532124 0.6272004 -0.19722474 0.18657625
0.12560546 -0.6844841 0.097038984 0.51499647 -0.22270918 -0.57792354 -0.31314197 0.6761618
-0.17033505 -0.5356105 0.31080407 -0.4787603 0.37986118 0.0073753595 0.008550823 0.08655262
-0.0952999 -0.47680098 -0.2530265 -0.5546594 0.7014175 -0.63790965 -0.6907816 0.6780707
0.5378594 0.11904174 -0.37891364 0.06720406 0.3232643 -0.5519676 0.689652 0.01667279
0.33949858 -0.15011358 -0.2615406 -0.42233688 -0.56732976 0.27606446 -0.06159079 -0.428618
-0.6407435 -0.35541198 -0.33826992 -0.6148844 0.12959433 0.580828 -0.2562649 -0.043840885
-0.42185935 0.6124974 -0.46675855 0.62942415 -0.38461164 -0.4273139 -0.7036612 0.44540936
-0.11141789 0.109432876 -0.4639787 0.16536325 -0.283058 0.032202303 -0.2623247 -0.05149299
0.4288724 0.36726516 0.05377406 -0.5223916 0.2564087 -0.5832835 0.34043294 -0.18194383
00000000: 4136 cdbe ed64 1f3f e175 febe 8e1c 8a3e
00000010: 8066 c03d b854 ad3d 5880 b73d 1047 343e
00000020: 17be 0ebf 4cb8 063e b5cf 163f 57da 9ebe
00000030: 6671 db3e a051 9cbc 70dc 0a3d 5456 dcbe
00000040: f28e 23bf 1ce1 37be a3b0 0e3f c828 8dbe
00000050: e202 cebe b4f4 20bf e02b 01bf a178 a0be
00000060: 184f cc3d 10d7 2abe 592a a0be 4539 debe
00000070: d65d 973e e0a5 bc3d 762b 04bf ab0c 0d3f
00000080: ce15 ba3e 50fe d83d 5fa8 1d3f 9fc8 223f
00000090: c2dd bd3e 008c bcbd d3db d4be 8666 af3e
000000a0: 4ee5 c83e 4d66 9dbe e4e4 3f3e 98d3 afbd
000000b0: 4c1d 763e 30c0 f53d 747f 42be 42d0 d4be
000000c0: e7dd 143f f810 893e d034 75bd 8912 cfbe
000000d0: f800 933d 6f73 0bbf 78ce 25bf 965c e43e
000000e0: d4ad 61be 5152 2a3f 6487 2d3e a652 30bf
000000f0: a8dd dc3d 6cf3 3ebe 3c2d 3e3e 267a ce3e
00000100: cedb 23bf 136c 08bf b074 20be f860 443e
00000110: 86ca b53e e84b af3d 3a84 c8be d3dd 153f
00000120: f69c 7cbe a05a 10bf 5870 4d3e c4ae 17be
00000130: 1d56 1b3f cc67 28bf 01cd cabe a835 663e
00000140: 7afe e43e 6484 173e 20b6 093d c0d6 303e
00000150: 7310 03bf 501b 5b3d e04b 1dbd 825f ff3e
00000160: 38b7 eb3d 6439 3c3e 6a32 e03e 00e1 f43d
00000170: e589 083f 8082 373c b249 c83e ed5a c4be
00000180: 188a 9cbd c070 54be eaac 953e b5a3 21bf
00000190: b02d 523d 6567 013f 4023 febd 81dc 1b3f
000001a0: d442 13be 7eb0 78be 74b3 00bf 25c8 293f
000001b0: 6049 5ebd 351f 25bf c2d8 813e a006 e4bc
000001c0: 0c2f 05be f2bf 923e 3461 183e 65a7 1bbf
000001d0: 255f 09bf 824d 69be 06b0 e73e 4a44 ba3e
000001e0: a8d9 28bf 3bb8 133f 7b62 0bbf 6e3f 0dbf
000001f0: f966 183f 3590 203f 48f5 49be d80d 3f3e
00000200: b89e 003e 5a3a 2fbf 60bc c63d cfd6 033f
00000210: e00d 64be ccf2 13bf 2554 a0be f118 2d3f
00000220: 506c 2ebe c51d 09bf b621 9f3e 1220 f5be
00000230: 2a7d c23e 00ad f13b c018 0c3c 8042 b13d
00000240: 982c c3bd 421f f4be b08c 81be 29fe 0dbf
00000250: 1990 333f 0c4e 23bf 10d7 30bf 0b96 2d3f
00000260: 27b1 093f 28cc f33d f800 c2be 48a2 893d
00000270: e682 a53e c04d 0dbf 098d 303f 6095 883c
00000280: c2d2 ad3e 60b7 19be a6e8 85be 8a3c d8be
00000290: 863c 11bf 5258 8d3e a046 7cbd d273 dbbe
000002a0: c407 24bf 8ff8 b5be b731 adbe 1069 1dbf
000002b0: 60b4 043e 25b1 143f 2735 83be 8092 33bd
000002c0: f3fd d7be a1cc 1c3f fafa eebe f121 213f
000002d0: d1eb c4be e3c8 dabe 2423 34bf b20c e43e
000002e0: 102f e4bd 581e e03d 9e8e edbe fc54 293e
000002f0: faec 90be 90e6 033d 6c4f 86be 50ea 52bd
00000300: 2a95 db3e 2e0a bc3e 3042 5c3d 75bb 05bf
00000310: 0048 833e 1152 15bf 3a4d ae3e 7c4f 3abe

layer_1.bias f4 [100]
0.20432317 0.56503123 -0.4865144 0.49025363 0.062110364 -0.43445122 -0.66710055 -0.41499886
-0.13469356 0.11199945 -0.2520691 0.24621868 -0.112638235 -0.50305974 0.0254094 0.2631591
0.005105436 -0.5799507 -0.2739695 0.650418 0.5197926 0.14235908 0.49625963 0.6426433
0.691619 -0.21635333 -0.4177356 0.20674038 -0.6034068 0.19088602 0.63350886 -0.57481587
0.44593948 -0.5624225 -0.035361767 -0.26432616 -0.11250943 0.601214 -0.6004474 0.64377016
-0.5148347 -0.58146787 -0.5417576 0.35998398 0.50035137 -0.43998814 0.1758945 0.70064014
-0.38825735 -0.084656894 0.09731555 0.2731021 0.24007589 -0.14424455 -0.35217965 0.14214116
-0.18203485 -0.6838504 0.39859325 0.32000166 0.6857533 0.22467172 0.5230264 0.33541602
0.20981276 -0.605303 -0.3585665 -0.5297492 -0.06727958 0.66449577 -0.3826874 0.50203735
-0.6070262 0.57313424 0.6629301 -0.6686435 0.4354053 -0.3534262 -0.69722605 0.65575904
0.13090187 -0.04427147 -0.60660297 -0.20948163 -0.058957696 -0.31575677 0.020759284 -0.33316332
0.6696184 0.44456214 0.33550805 -0.20348912 -0.6941627 -0.51801866 -0.113962054 -0.41783154
0.2677992 0.52876014 -0.65636384 0.11572558
00000000: 183a 513e e3a5 103f 6a18 f9be 8602 fb3e
00000010: 7067 7e3d 6470 debe 1ac7 2abf bb7a d4be
00000020: 1ced 09be f85f e53d 330f 81be c020 7c3e
00000030: e0ae e6bd 86c8 00bf 6027 d03c cabc 863e
00000040: 804b a73b a677 14bf bb45 8cbe cb81 263f
00000050: 2111 053f 94c6 113e be15 fe3e 4584 243f
00000060: f10d 313f ba8b 5dbe 71e1 d5be c0b3 533e
00000070: de78 1abf a077 433e a32d 223f 2227 13bf
00000080: 2e52 e43e ecfa 0fbf 80d7 10bd c255 87be
00000090: 586b e6bd 29e9 193f ecb6 19bf 1fce 243f
000000a0: 35cc 03bf 14db 14bf a0b0 0abf d24f b83e
000000b0: 0717 003f 2046 e1be b01d 343e 275d 333f
000000c0: abc9 c6be 9860 adbd 604d c73d 0ad4 8b3e
000000d0: 74d6 753e d8b4 13be e450 b4be 748d 113e
000000e0: 5867 3abe d210 2fbf 6a14 cc3e 42d7 a33e
000000f0: 878d 2f3f 5810 663e 0fe5 053f a6bb ab3e
00000100: 28d9 563e 23f5 1abf 0796 b7be a59d 07bf
00000110: e0c9 89bd 651c 2a3f 9aef c3be 8585 003f
00000120: 1266 1bbf edb8 123f c9b5 293f 382c 2bbf
00000130: 72ed de3e 47f4 b4be 687d 32bf d3df 273f
00000140: 240b 063e 0056 35bd 554a 1bbf 5a82 56be
00000150: a07d 71bd dfaa a1be 600f aa3c 6294 aabe
00000160: 1d6c 2b3f a69d e33e b6c7 ab3e 745f 50be
00000170: a6b4 31bf df9c 04bf f064 e9bd 04ee d5be
00000180: fa1c 893e d35c 073f 7607 28bf 8801 ed3d

layer_2.weight f4 [100, 100]
-0.086102605 0.024425782 0.026374362 -0.055505883 -0.047463764 0.06769813 -0.015340589 0.015002944
-0.08613559 -0.011761248 0.053880163 -0.05351627 -0.07047027 -0.029181756 0.057569288 0.030147038
0.09789028 0.068728216 0.09799685 0.07718719 -0.023505628 -0.046121012 0.08987463 0.0076322407
-0.047659483 -0.005316995 -0.09309443 0.09531554 -0.09667971 0.022250429 -0.028058909 0.022494651
-0.057228174 -0.06591304 0.09744223 -0.023397923 -0.09610607 -0.033359706 0.020920828 -0.023853138
0.06586412 0.0845147 -0.007082142 -0.05937923 -0.056950103 0.04920817 0.028076716 -0.024470173
0.025790878 0.023692176 -0.055586815 0.059980236 0.016428187 0.055268995 -0.05416572 0.073828645
-0.038569 -0.008117296 0.085782595 -0.06667119 -0.079313874 0.021024905 -0.07082635 -0.043815542
0.042507477 0.02294898 0.085064285 0.06784085 -0.027579091 -0.098735966 0.058052607 0.060789056
0.010774329 -0.08088312 -0.06151518 0.08762867 0.04734116 -0.072881624 0.06823697 0.07851649
0.046347342 -0.008236468 0.022353634 -0.031084076 0.091442846 0.0853296 0.046539627 -0.01409547
0.041764207 -0.05232637 0.08282728 0.0023901686 0.0725927 0.011189774 0.03753329 0.06963866
0.012346067 0.019700631 -0.06826935 0.081012435 0.08583387 0.0997122 -0.028737605 -0.0051917806
-0.01608435 -0.034056976 0.06017769 -0.09495165 0.04049214 -0.09194881 0.042696483 0.01482363
0.071567155 0.07140174 -0.009080626 0.059095718 -0.04865041 -0.0007636994 -0.07091439 0.057322927
-0.019435965 -0.067927435 0.08923856 0.032652862 0.08962578 0.06662352 -0.030180193 0.05318936
-0.08289919 0.0353378 -0.038743507 0.031413294 -0.050595846 -0.06938914 0.034691103 -0.08602996
0.023434564 0.028468825 0.048825882 -0.029035851 0.048037417 -0.06647638 0.009091593 0.052780814
-0.0075976625 -0.04483968 -0.05654731 -0.006297685 0.058430336 0.03907215 -0.08527064 0.04348872
0.029488437 -0.023402117 -0.0440758 0.09885771 0.054067455 0.04980626 0.051691703 0.08745352
-0.08564965 0.007689081 -0.028324828 0.08465516 -0.07898767 0.0023666173 -0.07986288 0.016712084
-0.0027207136 -0.009037994 0.06674314 -0.07333885 0.09124827 0.06711186 0.050804086 -0.07157874
0.032867618 0.004503824 0.067482255 -0.061548628 -0.008264288 0.061852284 0.07828187 0.01734624
0.052987285 -0.08930141 -0.08392487 -0.08807234 0.03411574 -0.042881276 0.03895054 -0.06354728
0.030290104 -0.0026661605 -0.09396882 0.06537277 -0.0042510033 0.099181466 0.087918855 0.0013745874
0.0898454 -0.057268154 -0.023047522 0.013028242 -0.09614023 0.015328929 0.029950432 0.06887346
-0.046073366 -0.055125345 0.07366354 -0.09261493 0.08589784 -0.02706933 0.05484309 0.095892794
0.077685185 0.070525624 -0.0030712485 0.07720985 -0.043470647 -0.044670653 -0.022432603 -0.035562232
-0.020752154 0.05285559 0.04900018 -0.01532203 -0.011448324 -0.03450513 0.07653404 -0.014400497
0.09162796 0.028191574 0.06603324 -0.026619613 0.022853531 0.02643209 -0.028504983 0.0904128
-0.037721086 0.01540228 0.0014999285 -0.064073086 0.017109469 0.06672343 0.08629019 -0.063217975
0.0588155 -0.052381326 -0.040687837 0.06515119 0.015846156 -0.08634055 -0.019635484 0.08798105
00000000: 9056 b0bd 9418 c83c 0c0f d83c 235a 63bd
00000010: 5d69 42bd 51a5 8a3d 1857 7bbc e8ce 753c
00000020: db67 b0bd 40b2 40bc 72b1 5c3d e033 5bbd
00000030: b852 90bd 940e efbc c6cd 6b3d ecf6 f63c
00000040: b37a c83d 61c1 8c3d 93b2 c83d 5114 9e3d
00000050: e08e c0bc 63e9 3cbd 3110 b83d e017 fa3b
00000060: 9736 43bd 303a aebb 4ba8 bebd cb34 c33d
00000070: 0300 c6bd 8846 b63c ccdb e5bc b446 b83c
00000080: 1768 6abd 6afd 86bd cb8f c73d 00ad bfbc
00000090: 42d3 c4bd 30a4 08bd 2862 ab3c a867 c3bc
000000a0: c5e3 863d 0b16 ad3d 5011 e8bb a337 73bd
000000b0: 8344 69bd 828e 493d 2401 e63c ac75 c8bc
000000c0: 6447 d33c 1816 c23c 00af 63bd d6ad 753d
000000d0: 6894 863c be61 623d e0dc 5dbd 7933 973d
000000e0: 87fa 1dbd 68fe 04bc c9ae af3d e88a 88bd
000000f0: 506f a2bd 6c3c ac3c 680d 91bd ed77 33bd
00000100: 521c 2e3d 80ff bb3c 2f36 ae3d 25f0 8a3d
00000110: 8ced e1bc 1536 cabd 92c8 6d3d f2fd 783d
00000120: d086 303c 0da6 a5bd 57f7 7bbd a976 b33d
00000130: cee8 413d f642 95bd d3bf 8b3d 41cd a03d
00000140: b6d6 3d3d 40f2 06bc f81e b73c 08a4 febc
00000150: 6346 bb3d 49c1 ae3d 56a0 3e3d b0f0 66bc
00000160: f210 2b3d 2d54 56bd 59a1 a93d 60a4 1c3b
00000170: 7bab 943d 5055 373c 82bc 193d b79e 8e3d
00000180: 2847 4a3c 3863 a13c cdd0 8bbd d9e9 a53d
00000190: abc9 af3d e935 cc3d 206b ebbc d01f aabb
000001a0: 54c3 83bc 547f 0bbd e27c 763d 0376 c2bd
000001b0: 16db 253d a84f bcbd 82e2 2e3d d0de 723c
000001c0: cd91 923d 133b 923d e8c6 14bc 5a0e 723d
000001d0: a745 47bd 0033 48ba 903b 91bd 72cb 6a3d
000001e0: 2c38 9fbc 8a1d 8bbd b5c2 b63d 02bf 053d
000001f0: b98d b73d e971 883d 743c f7bc 16dd 593d
00000200: 0dc7 a9bd 5ebe 103d 83b1 1ebd 3aab 003d
00000210: 973d 4fbd e51b 8ebd 4218 0e3d 7a30 b0bd
00000220: d8f9 bf3c 7437 e93c a6fd 473d 98dc edbc
00000230: e2c2 443d c524 88bd e8f4 143c b230 583d
00000240: d0f5 f8bb d0a9 37bd 279e 67bd d05c cebb
00000250: a654 6f3d 1e0a 203d 60a2 aebd 3a21 323d
00000260: bc91 f13c ccb5 bfbc d388 34bd e975 ca3d
00000270: d675 5d3d a601 4c3d aeba 533d d51a b33d
00000280: 1569 afbd b0f4 fb3b 7809 e8bc af5f ad3d
00000290: 4ac4 a1bd 4019 1b3b 268f a3bd c8e7 883c
000002a0: 004e 32bb 1814 14bc a1b0 883d ae32 96bd
000002b0: 5fe0 ba3d f171 893d f217 503d e097 92bd
000002c0: 32a0 063d d094 933b 2334 8a3d 6a1a 7cbd
000002d0: f066 07bc d258 7d3d 3f52 a03d b419 8e3c
000002e0: 3209 593d a8e3 b6bd cde0 abbd 455f b4bd
000002f0: f2bc 0b3d 47a4 2fbd 9a8a 1f3d 1425 82bd
00000300: f422 f83c c0ba 2ebb ba72 c0bd 29e2 853d
00000310: 004c 8bbb a71f cb3d cd0e b43d 802b b43a
00000320: dd00 b83d 0392 6abd 28ce bcbc 6874 553c
00000330: 2be5 c4bd 3026 7b3c 9c5a f53c 870d 8d3d
00000340: 6db7 3cbd 1dcb 61bd e9dc 963d e5ac bdbd
00000350: 35eb af3d 80c0 ddbc 26a3 603d 7163 c43d
00000360: 6919 9f3d bd6f 903d 0047 49bb 3320 9e3d
00000370: 470e 32bd 93f8 36bd 94c4 b7bc b4a9 11bd
00000380: 6c00 aabc 1a7f 583d 6ab4 483d 4009 7bbc
00000390: c091 3bbc 4055 0dbd e1bd 9c3d 10f0 6bbc
000003a0: 71a7 bb3d 04f2 e63c 6f3c 873d 6011 dabc
000003b0: 5437 bb3c 1c88 d83c 4883 e9bc 592a b93d
000003c0: 6d81 1abd d859 7c3c 4099 c43a c038 83bd
000003d0: 2829 8c3c 4ba6 883d e9b8 b03d 6d78 81bd
000003e0: 86e8 703d cd8d 56bd 4aa8 26bd fd6d 853d
000003f0: cccf 813c 50d3 b0bd 98da a0bc 692f b43d

layer_2.bias f4 [100]
-0.096392594 0.07470351 0.035804905 0.034797378 -0.098793104 -0.034385666 0.097328134 -0.01554136
-0.053309392 -0.024086595 0.06652803 0.005553223 0.06967295 -0.081898466 0.030444987 0.051387988
0.06398823 0.013245307 -0.03187736 -0.06550206 -0.093180716 -0.02063308 0.07040801 -0.030047461
-0.089879535 0.08475674 0.025147878 0.04571063 -0.00092977285 -0.07910085 -0.09485183 -0.044804372
0.07959173 0.0784721 0.056345515 -0.052119162 -0.0033471212 0.079098664 -0.03312403 0.08903546
-0.07701705 -0.037072882 -0.08178375 0.05979713 -0.023914158 -0.07786016 -0.05614183 0.033035077
-0.041332986 -0.020083651 0.043176316 -0.041546058 0.039414577 -0.09036589 -0.092162505 0.014500484
0.09388179 -0.07902287 -0.041458916 -0.07632597 -0.08682638 0.02085261 0.010157406 -0.08795687
0.01712744 0.07672047 -0.016209409 -0.0787876 -0.052096605 0.05296076 0.036383636 0.07146669
0.043391816 -0.049010336 0.07521082 0.08303768 -0.061555814 0.036278553 0.036451437 0.091093756
0.07239116 0.022777736 -0.00020817667 -0.022583619 -0.060664117 0.091148786 -0.06669978 0.05661782
0.05030776 -0.084131375 -0.08708065 0.034110807 -0.032435194 -0.08428107 -0.040389564 0.044224687
0.08675886 -0.04375894 0.023976251 -0.05560261
00000000: 7b69 c5bd 27fe 983d 2aa8 123d b287 0e3d
00000010: 0a54 cabd fcd7 0cbd f953 c73d 30a1 7ebc
00000020: f35a 5abd 4051 c5bc d93f 883d d0f7 b53b
00000030: b1b0 8e3d 62ba a7bd c467 f93c 367c 523d
00000040: 430c 833d d802 593c d691 02bd f225 86bd
00000050: 88d5 bebd b406 a9bc 1332 903d 1826 f6bc
00000060: c312 b8bd f194 ad3d ec02 ce3c 123b 3b3d
00000070: 00bc 73ba a0ff a1bd ad41 c2bd ca84 37bd
00000080: fd00 a33d fbb5 a03d 8eca 663d e77a 55bd
00000090: 605b 5bbb 7bfe a13d 10ad 07bd 3958 b63d
000000a0: 1dbb 9dbd bcd9 17bd 3d7e a7bd d6ed 743d
000000b0: a0e7 c3bc 2675 9fbd faf4 65bd ca4f 073d
000000c0: c74c 29bd 7886 a4bc a6d9 303d 332c 2abd
000000d0: 2e71 213d c011 b9bd b2bf bcbd 7093 6d3c
000000e0: 1945 c03d bed6 a1bd d3d0 29bd ca50 9cbd
000000f0: 07d2 b1bd 18d3 aa3c 406b 263c bb22 b4bd
00000100: d84e 8c3c 9f1f 9d3d 98c9 84bc 655b a1bd
00000110: 4063 55bd 62ed 583d 0207 153d 215d 923d
00000120: 9ebb 313d 10bf 48bd 2108 9a3d a90f aa3d
00000130: f321 7cbd d298 143d 1a4e 153d 5d8f ba3d
00000140: d141 943d 6098 ba3c 004a 5ab9 4801 b9bc
00000150: f07a 78bd 37ac ba3d e599 88bd 16e8 673d
00000160: 820f 4e3d 124d acbd 5757 b2bd c6b7 0b3d
00000170: c4da 04bd 8e9b acbd 876f 25bd f224 353d
00000180: a1ae b13d 933c 33bd d869 c43c 90bf 63bd

output_layer.weight f4 [4, 100]
0.006099306 -0.03157191 0.08809776 0.06512683 0.036097117 -0.04377836 0.0919264 -0.008249424
-0.04664066 -0.059856713 -0.09816959 0.03035339 -0.026470162 0.032100715 0.015990056 0.02202855
-0.05815029 0.07126052 -0.09045257 0.0029650703 -0.057617355 -0.03879725 0.03901971 -0.045759022
-0.08706553 -0.0108260885 -0.04530331 0.09134463 -0.05852381 -0.06611517 -0.05845808 0.018523768
-0.022609971 -0.057818115 -0.05576837 -0.022584595 0.04896214 0.06783194 -0.08675887 -0.039531507
-0.012783088 0.05673828 0.044573717 -0.059629884 -0.08870925 -0.0046272427 -0.0017045587 0.0509947
0.06006152 -0.07239187 -0.05695472 -0.06657849 -0.099187516 -0.08141498 0.0678887 0.074266426
-0.06301843 -0.012778617 -0.0775754 0.046595804 -0.064855665 -0.033773385 -0.09403761 -0.0771063
0.00273218 0.018848374 0.024004221 0.08322001 -0.05488869 -0.066319525 0.09062696 0.09345872
-0.08224778 0.0023027211 -0.021458507 0.087862946 0.016796432 -0.022999525 -0.08179541 -0.057178725
-0.018719628 -0.024619058 -0.053007867 0.07445658 0.09161616 -0.012742721 0.0009931475 0.022986114
-0.04023316 0.032629542 -0.06225356 0.083527006 -0.07494259 -0.026121363 -0.052899063 -0.058350254
0.04547175 -0.028840348 0.047929548 0.089550145 -0.059447575 0.06953693 0.055656336 0.080198966
0.038129248 -0.025295496 0.073070146 0.051568575 0.0716032 -0.010839425 0.03416515 -0.00860934
-0.058169235 -0.069985494 0.09449252 0.06016513 -0.041252818 0.054318823 0.07367485 0.09362974
-0.09901525 0.046547957 -0.06529388 0.09476235 0.07609383 0.080861546 -0.0043630004 0.03735078
0.08015544 -0.07092235 -0.042147186 0.08715082 0.014062777 -0.021944627 0.0377739 -0.024617448
-0.032484293 -0.025174655 -0.0057293177 -0.04625976 0.024496853 -0.07383357 -0.08783441 -0.09553529
-0.02824466 0.07984651 0.0032512918 0.09864665 -0.070008196 0.058672316 0.035248674 0.03303764
0.04484812 -0.016343795 0.06658267 0.07904524 -0.07750002 0.06534851 0.022643901 -0.008635327
-0.06365147 0.057006247 -0.09763744 0.049439795 0.0057000145 -0.056520548 -0.019891955 -0.06761436
-0.081794605 0.09541137 -0.09007658 -0.065350845 -0.053984523 0.09406317 0.05199363 -0.011406645
0.04817372 -0.049543858 -0.06407276 -0.048304953 -0.018459097 0.09336039 0.06633755 -0.044519532
-0.062280443 -0.09058811 0.014688209 -0.024204299 0.055814646 -0.07202359 0.06751234 -0.08219466
0.018567845 -0.084014155 -0.011981487 0.09273084 -0.026929453 0.09499874 -0.09174937 -0.098699294
0.04419244 0.08596187 -0.04804888 -0.07788646 -0.09412018 -0.09366347 0.026959978 -0.08061755
0.0061556324 -0.026722573 0.078181036 -0.029142119 -0.019531474 -0.036558196 -0.0070445314 0.0935039
-0.099142574 0.03582806 -0.025047064 -0.03724523 0.061695404 -0.09979411 -0.012235858 0.030208834
0.043175645 0.006863013 -0.06407215 0.07673336 -0.088418484 0.063612826 -0.097346775 -0.09727197
0.05711793 0.009369992 0.041673087 -0.07937701 0.070964225 -0.020797014 -0.014776982 0.037584104
0.021939673 0.0062694773 0.023483992 -0.0815284 0.08130043 -0.060332965 -0.03083758 0.043837287
0.06723919 0.041102774 -0.07651393 0.022669196 0.06472615 -0.083832145 0.007072665 -0.088049196
00000000: b0dc c73b 8c51 01bd 996c b43d 3761 853d
00000010: 92da 133d f050 33bd e943 bc3d 9828 07bc
00000020: 470a 3fbd 502c 75bd 230d c9bd aca7 f83c
00000030: f4d7 d8bc 0a7c 033d 94fd 823c 3875 b43c
00000040: 002f 6ebd 09f1 913d 323f b9bd a051 423b
00000050: 2d00 6cbd dde9 1ebd 22d3 1f3d d06d 3bbd
00000060: 6a4f b2bd e85f 31bc f78f 39bd e512 bb3d
00000070: aab6 6fbd 6467 87bd bd71 6fbd 28bf 973c
00000080: 8c38 b9bc b0d2 6cbd 606d 64bd 5403 b9bc
00000090: 868c 483d 79eb 8a3d a2ae b1bd caeb 21bd
000000a0: 2870 51bc 6666 683d ee92 363d 773e 74bd
000000b0: 32ad b5bd 20a0 97bb 806b dfba d2df 503d
000000c0: 1203 763d 3042 94bd 5a49 69bd 4e5a 88bd
000000d0: d322 cbbd e6bc a6bd 3b09 8b3d ff18 983d
000000e0: ce0f 81bd 685d 51bc dadf 9ebd 3edb 3e3d
000000f0: 0cd3 84bd f655 0abd ca96 c0bd e8e9 9dbd
00000100: 600e 333b e867 9a3c 80a4 c43c 416f aa3d
00000110: f7d2 60bd 88d2 87bd a19a b93d 4967 bf3d
00000120: 8671 a8bd 40e9 163b c0c9 afbc 7df1 b33d
00000130: ac98 893c 8069 bcbc 5a84 a7bd 3d34 6abd
00000140: e859 99bc e8ad c9bc c71e 59bd b17c 983d
00000150: 41a1 bb3d d8c6 50bc 802c 823a 604d bc3c
00000160: 87cb 24bd 8ea6 053d 97fd 7ebd 3510 ab3d
00000170: 807b 99bd 78fc d5bc b0ac 58bd ad00 6fbd
00000180: 9640 3a3d 9842 ecbc c651 443d 1166 b73d
00000190: 4d7f 73bd 6169 8e3d e6f7 633d 5b3f a43d
000001a0: 6a2d 1c3d 8038 cfbc cda5 953d 9239 533d
000001b0: b3a4 923d d897 31bc c2f0 0b3d 300e 0dbc
000001c0: dd42 6ebd 8e54 8fbd 4b85 c13d b66f 763d
000001d0: b7f8 28bd 6a7d 5e3d d7e2 963d f3c0 bf3d
000001e0: 82c8 cabd 12a9 3e3d ccb8 85bd c312 c23d
000001f0: 15d7 9b3d bd9a a53d 80f7 8ebb 22fd 183d
00000200: 8928 a43d bd3f 91bd 87a2 2cbd 217c b23d
00000210: 9067 663c 38c5 b3bc ceb8 1a3d 88aa c9bc
00000220: 400e 05bd 143b cebc 00bd bbbb e07a 3dbd
00000230: a0ad c83c 0e36 97bd 87e2 b3bd 02a8 c3bd
00000240: 5861 e7bc 9186 a33d a013 553b 4107 ca3d
00000250: 7560 8fbd 6252 703d ea60 103d 7a52 073d
00000260: aab2 373d 6ce3 85bc 7f5c 883d 79e2 a13d
00000270: 55b8 9ebd 71d5 853d b47f b93c 307b 0dbc
00000280: b45b 82bd 627f 693d 23f6 c7bd 6281 4a3d
00000290: 30c7 ba3b 1782 67bd 74f4 a2bc 6679 8abd
000002a0: ee83 a7bd 0967 c33d 127a b8bd aad6 85bd
000002b0: e01e 5dbd 31a4 c03d 46f7 543d f0e2 3abc
000002c0: ce51 453d 80ee 4abd 9438 83bd 6adb 45bd
000002d0: 8837 97bc bb33 bf3d fbdb 873d 1d5a 36bd
000002e0: c719 7fbd 4286 b9bd d0a6 703c 1848 c6bc
000002f0: e69d 643d 1b81 93bd e943 8a3d ad55 a8bd
00000300: 981b 983c 9d0f acbd 004e 44bc abe9 bd3d
00000310: 289b dcbc b38e c23d 18e7 bbbd db22 cabd
00000320: 2203 353d c70c b03d e7ce 44bd f082 9fbd
00000330: 15c2 c0bd a2d2 bfbd 2cdb dc3c d01a a5bd
00000340: 30b5 c93b 4ce9 dabc 611d a03d 74bb eebc
00000350: 7800 a0bc 0cbe 15bd d0d5 e6bb f97e bf3d
00000360: 430b cbbd 72c0 123d 802f cdbc 748e 18bd
00000370: 52b4 7c3d db60 ccbd e878 48bc 8478 f73c
00000380: f2d8 303d 20e3 e03b 4238 83bd 6126 9d3d
00000390: c014 b5bd 7147 823d bf5d c7bd 8736 c7bd
000003a0: 7ef4 693d 9884 193c 66b1 2a3d 6a90 a2bd
000003b0: b155 913d 805e aabc 281b 72bc caf1 193d
000003c0: d4ba b33c 3070 cd3b 8061 c03c 5df8 a6bd
000003d0: d780 a63d b31f 77bd 189f fcbc ba8e 333d
000003e0: b3b4 893d 625b 283d 56b3 9cbd c0b4 b93c
000003f0: 258f 843d 30b0 abbd d0c1 e73b 2353 b4bd

output_layer.bias f4 [4]
0.005914107 -0.0066593066 0.047301345 -0.07753036
00000000: 20cb c13b 5036 dabb 0ebf 413d 3dc8 9ebd
